app/src/main/assets/testModel.tflite (tflite, 27552 bytes, 9 tensors)

model/dense/MatMul1 f4 [64, 24]
-0.23193923 -0.1531476 -0.026664943 -0.060860068 0.09496915 -0.08432916 -0.17784566 0.08805531
0.16929519 0.047805995 -0.11610399 0.018459797 0.23808491 0.020635664 -0.112711534 -0.15378596
0.16573209 0.09184739 -0.25153288 0.08995229 -0.03359455 0.08761054 -0.13178572 0.17402986
-0.076677695 -0.13257879 -0.23117143 0.114366144 -0.06411457 0.25245133 0.045424193 -0.069475666
-0.1342118 0.03368196 0.05826354 -0.13712719 0.0109303 0.20094612 0.1272251 -0.19815536
-0.08165088 0.0015583634 0.033515126 -0.06810443 0.21611676 0.0020062327 0.035713702 0.00928995
-0.06362201 -0.26056644 0.116042614 -0.15328598 0.1423583 0.17460385 -0.15334494 0.21822426
-0.17736486 0.058170468 0.23575377 0.10815066 -0.15742987 -0.19542503 0.060949296 -0.109064505
-0.16118091 -0.06555484 0.043734163 -0.11237654 0.13589585 -0.048537627 0.09053254 0.13170248
-0.22220603 0.1515243 -0.08483441 -0.08120301 0.17450762 0.1313546 0.2603067 0.02579388
0.22962049 0.005375415 -0.11711034 0.23470104 -0.10251689 0.24720857 0.22592491 -0.047845155
0.14416695 -0.026604801 -0.16757506 0.15722206 0.12686983 -0.07956503 -0.25318375 0.07955128
-0.24687421 -0.2076058 -0.0013977587 0.13596466 0.054986745 -0.24960615 0.1112788 0.19256485
-0.17622802 0.06991133 -0.1194769 -0.022864342 0.2036882 -0.16629374 -0.25382742 0.18996489
0.15145576 -0.14824352 0.00029167533 0.10332006 0.12034729 -0.17266199 -0.012239337 -0.06632227
0.120515764 0.0065829754 -0.24402386 -0.14282098 0.24861512 -0.13033307 -0.02277039 0.23631999
-0.22709952 0.14788735 0.18054378 -0.24968825 0.22211918 -0.0482091 -0.03477092 -0.12840839
0.2605076 0.04894358 -0.12918246 -0.09319408 0.013811588 -0.06375556 0.11345354 0.11527252
0.05985385 0.004243493 0.14267492 0.004844129 -0.038035333 0.080662906 -0.023903817 -0.2148272
-0.13773182 -0.021681935 -0.25980458 0.03266409 -0.22299947 0.0310601 0.22361249 0.22042635
0.0064808726 -0.079490066 0.24225459 0.029927164 -0.21068487 0.22418532 -0.21253908 0.13066763
0.055018365 -0.11755516 0.101471275 0.100462615 -0.2500449 -0.21792302 0.10580072 -0.07918371
0.21362212 -0.08215527 0.18062839 -0.18601695 0.08921412 0.16809621 -0.11404447 0.117872596
0.23882139 0.15932521 0.25870076 -0.055106774 0.009095281 -0.0010592043 -0.2302063 0.23131624
-0.004062891 0.16366434 0.010435492 -0.03529094 -0.008005619 0.20640174 0.20930311 0.011370927
-0.1617473 0.16601384 0.14595583 0.048918813 -0.23269837 -0.22644204 -0.13591653 -0.17534992
0.13269913 -0.17168042 0.035939693 0.030081749 0.06873441 -0.10711543 0.13869616 0.16993701
-0.2458559 0.045922846 -0.25919652 0.23117366 -0.22716215 0.15076354 -0.06681259 0.002254814
-0.2136131 0.23936173 0.2405763 -0.12175955 -0.03793174 -0.08515839 -0.0098519325 -0.064520165
-0.06647915 0.006154716 -0.11090122 0.2582573 -0.14662239 -0.061192885 0.24290964 0.23369202
-0.052965194 0.13219357 0.22531754 -0.18940124 -0.008289695 -0.014372259 0.08278927 -0.2457101
0.1888569 0.24912795 -0.0057023764 0.029218823 -0.07363181 0.18415537 0.17620635 0.2577934
00000000: 7a81 6dbe b9d2 1cbe 7070 dabc 6848 79bd
00000010: 307f c23d c4b4 acbd 2c1d 36be 5856 b43d
00000020: b85b 2d3e 38d0 433d eec7 edbd 0039 973c
00000030: 88cc 733e 200c a93c 4ed5 e6bd 117a 1dbe
00000040: acb5 293e 7c1a bc3d ebc8 80be e838 b83d
00000050: 709a 09bd 286d b33d d6f2 06be e234 323e
00000060: 3209 9dbd bcc2 07be 34b8 6cbe cc38 ea3d
00000070: 804e 83bd 4d41 813e b80e 3a3d 4249 8ebd
00000080: d16e 09be 18f6 093d c0a5 6e3d 126b 0cbe
00000090: 0015 333c d2c4 4d3e 4c47 023e 3de9 4abe
000000a0: 9438 a7bd 0042 cc3a 2847 093d 567a 8bbd
000000b0: b64d 5d3e 007b 033b 8848 123d e034 183c
000000c0: 424c 82bd f768 85be c0a7 ed3d 00f7 1cbe
000000d0: 60c6 113e 5acb 323e 7506 1dbe 2e76 5f3e
000000e0: 229f 35be 2844 6e3d 7069 713e 187e dd3d
000000f0: 4c35 21be 801d 48be f8a5 793d 365d dfbd
00000100: 9c0c 25be 9e41 86bd 9822 333d ac25 e6bd
00000110: 4828 0b3e 64cf 46bd 2069 b93d 04dd 063e
00000120: fa89 63be 3029 1b3e aabd adbd c44d a6bd
00000130: 20b2 323e d281 063e eb46 853e b04d d33c
00000140: a221 6b3e 4024 b03b 8cd7 efbd 7855 703e
00000150: 60f4 d1bd 3e24 7d3e dc58 673e 48f9 43bd
00000160: 80a0 133e 50f2 d9bc cc98 2bbe d2fe 203e
00000170: 2aea 013e fef2 a2bd 4da1 81be c8eb a23d
00000180: 98cc 7cbe 9d96 54be 0035 b7ba 523a 0b3e
00000190: c839 613d c198 7fbe 24e6 e33d b82f 453e
000001a0: 1e75 34be ac2d 8f3d 4eb0 f4bd 004e bbbc
000001b0: a493 503e e848 2abe abf5 81be 2886 423e
000001c0: 3817 1b3e 26cd 17be 00ec 9839 7899 d33d
000001d0: a478 f63d 4ece 30be 8087 48bc f8d3 87bd
000001e0: f8d0 f63d 00b6 d73b 64e1 79be aa3f 12be
000001f0: f694 7e3e 0876 05be f888 babc defd 713e
00000200: c78c 68be c86f 173e 78e0 383e 47ae 7fbe
00000210: 3673 633e e876 45bd f46b 0ebd 7d7d 03be
00000220: 4161 853e 1079 483d 6848 04be 8adc bebd
00000230: 004a 623c 4692 82bd 545a e83d 0014 ec3d
00000240: 5029 753d 000d 8b3b 6019 123e 80bb 9e3b
00000250: f0ca 1bbd 9832 a53d f0d1 c3bc a9fb 5bbe
00000260: 9209 0dbe 509e b1bc 1b05 85be c8ca 053d
00000270: f959 64be c071 fe3c acfa 643e 72b7 613e
00000280: 805d d43b b0cb a2bd 9611 783e d029 f53c
00000290: c6bd 57be d690 653e d8a3 59be bccd 053e
000002a0: f05a 613d c2c0 f0bd 2cd0 cf3d 58bf cd3d
000002b0: e305 80be 3627 5fbe 0cae d83d 122b a2bd
000002c0: c2bf 5a3e 0641 a8bd a6f6 383e 3a7b 3ebe
000002d0: e4b5 b63d 6a21 2c3e 2690 e9bd 3067 f13d
000002e0: 988d 743e 2626 233e 6d74 843e a4b7 61bd
000002f0: 6004 153c 00d5 8aba 33bb 6bbe 2ade 6c3e
00000300: 0022 85bb a097 273e a0f9 2a3c 3c8d 10bd
00000310: 002a 03bc fa5a 533e 8e53 563e 204d 3a3c
00000320: 16a1 25be 88ff 293e 7275 153e 185f 483d
00000330: 7b48 6ebe 6ce0 67be b42d 0bbe ee8e 33be
00000340: 48e2 073e fecc 2fbe 8035 133d 006e f63c
00000350: a0c4 8c3d 565f dbbd 5e06 0e3e f803 2e3e
00000360: a6c1 7bbe 9819 3c3d 68b5 84be cab8 6c3e
00000370: 329d 68be c261 1a3e 0ad5 88bd 80c5 133b
00000380: 64bd 5abe 3e1b 753e a259 763e 125d f9bd
00000390: 505e 1bbd 8667 aebd 006a 21bc 2623 84bd
000003a0: 3826 88bd 80ad c93b 2e20 e3bd 4d3a 843e
000003b0: 2e24 16be 64a5 7abd 4ebd 783e f64c 6f3e
000003c0: 08f2 58bd c05d 073e a4b9 663e 66f2 41be
000003d0: 80d1 07bc a079 6bbc 6c8d a93d 6e9b 7bbe
000003e0: b463 413e 661b 7f3e 00db babb 505c ef3c
000003f0: 46cc 96bd 3a93 3c3e 706f 343e 7ffd 833e

model/dense_1/MatMul f4 [32, 64]
-0.12311405 -0.20716834 -0.19131541 0.16188645 0.033079088 0.018931866 -0.2033552 0.10330576
0.20477939 0.17745942 0.06817478 0.10633552 -0.10536468 0.21559393 -0.064453185 0.045207262
-0.21381223 -0.17678028 0.19723523 0.040670753 -0.051671565 -0.1228866 -0.11591494 -0.05298823
-0.24701059 0.21691042 -0.11001599 -0.12811148 -0.1734519 -0.07563329 -0.14136922 0.13984382
0.06729829 0.13182855 0.15854806 -0.016348481 -0.047946095 0.07907796 -0.024686158 0.24623638
-0.10632676 0.20880723 -0.21002114 -0.17558342 -0.013899803 0.17246318 -0.20630068 -0.079788685
-0.052090943 -0.19328326 -0.0862326 -0.09478819 -0.11656231 -0.1409046 0.20159382 0.07561034
-0.070872545 -0.024264216 -0.1032536 0.14518297 -0.21093649 -0.08548099 0.10532433 -0.144207
-0.10115433 0.24701744 -0.24274755 0.16275841 -0.008275211 -0.17865163 0.073934615 0.1925686
-0.2340247 0.09368807 -0.07369596 -0.03595549 0.19065869 -0.08360547 -0.052178502 -0.049229205
-0.212695 -0.03573388 0.21590221 -0.23203814 -0.022919714 -0.24939233 -0.24874353 -0.10356295
-0.09719998 0.13971674 -0.22869807 -0.20671391 -0.15825391 -0.18713558 -0.19361234 0.033902884
0.2195661 0.05953896 -0.21279734 0.22793871 -0.046797276 -0.11314899 0.019232094 0.22016698
-0.017777324 0.17638838 0.08725363 -0.02164948 0.048917234 -0.08403075 -0.11978847 0.24606991
0.084385335 0.11303878 -0.05679077 0.19032109 -0.038941562 -0.06176406 -0.04699695 -0.09406006
-0.06922239 -0.036160827 -0.15220481 0.1335392 0.010481954 0.09257376 0.16826004 -0.20843887
-0.01384455 -0.04659909 0.21127439 0.017826617 -0.07045078 -0.19869363 -0.016398787 -0.21781552
-0.055508077 0.00472641 0.10166228 0.10864401 -0.15581882 0.18195075 -0.09484458 -0.13733083
0.12465322 0.061954856 -0.19784832 0.018074214 -0.12245393 0.060994864 -0.1404422 -0.08511025
0.09527308 0.19973993 -0.1634112 -0.1789859 0.14174187 0.058927238 -0.07076925 -0.0154470205
0.124681294 0.13915598 0.111124516 -0.1403876 0.16873789 -0.050519705 -0.08393854 -0.18546104
-0.097465575 0.06751126 0.063252985 0.018172085 0.07245755 -0.11784279 -0.0061763525 0.16111046
-0.07166469 0.0010777116 -0.22476298 0.05882305 0.106162906 -0.06786966 0.007490754 -0.0213933
0.08018285 -0.17113978 -0.15493155 -0.2007966 0.2495206 -0.14957488 -0.20946431 -0.0073102117
0.035633802 -0.15344322 -0.14900166 -0.06199771 -0.14205569 -0.08138257 0.10843599 0.22818816
0.0058469176 0.03438902 -0.072077096 0.008612812 -0.19750601 0.016501248 -0.08776224 -0.018804133
0.19589227 -0.109499335 -0.24771655 -0.054000854 -0.04260701 -0.0803473 -0.09179473 0.19853681
-0.23132867 0.017881751 -0.04357469 -0.010309517 -0.21159673 -0.13544446 -0.18160206 0.14936215
-0.21609145 -0.22963268 -0.06831741 0.13518882 -0.15452933 -0.12454873 -0.16523105 -0.1553064
-0.025895476 0.19898045 0.04163772 0.08009356 -0.010882795 0.21722293 -0.19640791 0.22444016
-0.18174106 0.11624426 -0.025108814 -0.030066252 0.017630696 0.09137201 0.0664258 -0.061731517
-0.19522 -0.20373917 -0.06311047 -0.02125454 -0.07037169 -0.2359302 -0.06905556 -0.14972156
00000000: 3823 fcbd f023 54be 30e8 43be 90c5 253e
00000010: f07d 073d 0017 9b3c 583c 50be f891 d33d
00000020: b0b1 513e ecb7 353e 389f 8b3d 70c6 d93d
00000030: 70c9 d7bd a8c4 5c3e 0800 84bd 402b 393d
00000040: 98f1 5abe e405 35be 08f8 493e 6096 263d
00000050: 90a5 53bd f8ab fbbd d064 edbd 300a 59bd
00000060: 58f0 7cbe c41d 5e3e 1050 e1bd a82f 03be
00000070: 609d 31be a0e5 9abd 18c3 10be 3833 0f3e
00000080: b0d3 893d 10fe 063e 6c5a 223e 40ed 85bc
00000090: 2063 44bd a0f3 a13d a03a cabc 6425 7c3e
000000a0: d8c1 d9bd 90d1 553e c80f 57be 24cc 33be
000000b0: 00bc 63bc 309a 303e 7c40 53be 4068 a3bd
000000c0: 505d 55bd 0cec 45be b89a b0bd 5020 c2bd
000000d0: 38b8 eebd 4c49 10be 9c6e 4e3e 98d9 9a3d
000000e0: a025 91bd c0c5 c6bc a076 d3bd d8aa 143e
000000f0: bcff 57be a810 afbd 48b4 d73d 00ab 13be
00000100: 002a cfbd 24f2 7c3e d092 78be 24aa 263e
00000110: c094 07bc 74f0 36be 086b 973d b430 453e
00000120: 2ca4 6fbe 88df bf3d e8ed 96bd 1046 13bd
00000130: 083c 433e 5839 abbd 20b9 55bd 90a4 49bd
00000140: b8cc 59be b05d 12bd 7815 5d3e 689b 6dbe
00000150: 20c2 bbbc b460 7fbe a0b6 7ebe d018 d4bd
00000160: c810 c7bd e811 0f3e d42f 6abe d0ac 53be
00000170: 500d 22be 78a0 3fbe 5042 46be c0dd 0a3d
00000180: f0d5 603e 20df 733d 8ce7 59be c468 693e
00000190: 80ae 3fbd a8ba e7bd a08c 9d3c 7473 613e
000001a0: c0a1 91bc 289f 343e 08b2 b23d 405a b1bc
000001b0: 705d 483d 5018 acbd a853 f5bd c0f9 7b3e
000001c0: 38d2 ac3d e080 e73d 709d 68bd 88e3 423e
000001d0: 3081 1fbd 50fc 7cbd e07f 40bd 90a2 c0bd
000001e0: 78c4 8dbd 601d 14bd 94db 1bbe 80be 083e
000001f0: 80bc 2b3c 5097 bd3d 5c4c 2c3e 0071 55be
00000200: 40d4 62bc b0de 3ebd 5058 583e 2009 923c
00000210: 8048 90bd 5876 4bbe c056 86bc 080b 5fbe
00000220: 705c 63bd 00e0 9a3b 5034 d03d c080 de3d
00000230: f88e 1fbe 4c51 3a3e e03d c2bd 74a0 0cbe
00000240: 304a ff3d 60c4 7d3d c098 4abe 6010 943c
00000250: 20c9 fabd c0d5 793d 14d0 0fbe 484e aebd
00000260: 881e c33d a088 4c3e 4455 27be 1448 37be
00000270: c824 113e b05d 713d 78ef 90bd 8015 7dbc
00000280: e858 ff3d e87e 0e3e 4095 e33d c4c1 0fbe
00000290: a0c9 2c3e c0ed 4ebd f8e7 abbd 80e9 3dbe
000002a0: 089c c7bd 5843 8a3d c88a 813d a0dd 943c
000002b0: a064 943d 9057 f1bd 0063 cabb 24fa 243e
000002c0: f0c4 92bd 0042 8d3a 4428 66be 70f0 703d
000002d0: f06b d93d 40ff 8abd 0075 f53b 0041 afbc
000002e0: e836 a43d 443f 2fbe 60a6 1ebe a09d 4dbe
000002f0: 5482 7f3e 282a 19be d07d 56be 808a efbb
00000300: c0f4 113d 3820 1dbe e493 18be 50f1 7dbd
00000310: 0c77 11be e8ab a6bd b013 de3d 28aa 693e
00000320: 8097 bf3b 80db 0c3d 289d 93bd c01c 0d3c
00000330: 043f 4abe a02d 873c b0bc b3bd 200b 9abc
00000340: fc97 483e 3041 e0bd 68a9 7dbe 0030 5dbd
00000350: b084 2ebd 208d a4bd e0fe bbbd 3c4d 4b3e
00000360: 6ce1 6cbe c07c 923c 607b 32bd 40e9 28bc
00000370: d0ac 58be f4b1 0abe e4f5 39be 64f2 183e
00000380: 1447 5dbe d424 6bbe 00ea 8bbd f06e 0a3e
00000390: f03c 1ebe 6813 ffbd 5432 29be a408 1fbe
000003a0: c022 d4bc 88c1 4b3e 508c 2a3d 1808 a43d
000003b0: c04d 32bc b06f 5e3e 281f 49be a4d3 653e
000003c0: 541a 3abe 7811 ee3d 00b1 cdbc 804d f6bc
000003d0: 406e 903c 4021 bb3d 400a 883d 30da 7cbd
000003e0: c0e7 47be 00a1 50be 1040 81bd 001e aebc
000003f0: 081f 90bd b097 71be 006d 8dbd 9c50 19be

model/dense_2/MatMul f4 [16, 32]
-0.34480008 -0.17882149 0.32764134 -0.057912976 -0.17390296 0.1751844 0.189845 0.17865333
0.19416717 -0.21476044 0.17764637 -0.038051516 0.20367011 0.07559341 -0.16782428 -0.24751857
0.19741759 0.26142773 0.1864548 -0.066339314 0.07675448 0.09264803 0.25903943 -0.014120191
0.23178336 -0.19841303 -0.022667319 -0.083400846 -0.20803624 0.07309073 0.34498063 0.10780507
-0.2515764 0.14328158 -0.18623023 0.055236906 -0.15789971 -0.08684054 -0.11848363 0.17363885
0.141922 0.0013513863 0.1552045 0.20771888 0.05456996 -0.2470375 -0.0047495365 -0.16656518
0.01167509 -0.24514815 0.18685105 -0.25582892 0.3008339 -0.07142854 0.097949535 0.0055188835
-0.07889038 0.25052527 -0.23426878 0.34661183 0.13578889 0.03370145 0.14045444 -0.16373806
0.28852198 0.35026458 0.19088241 0.010587543 -0.29065007 -0.3094104 0.32668427 0.17972395
0.13562846 -0.06615183 -0.26582456 0.113411516 -0.23119661 -0.20933083 -0.34177503 0.17313787
-0.29582602 0.2884269 -0.117561966 -0.1661025 -0.2515473 0.0034703612 -0.22909349 0.04945731
0.018006653 0.17770335 0.25520346 -0.09963244 0.13662735 -0.17400326 -0.20022914 -0.3344578
-0.12696578 -0.2018528 0.29143342 0.1504167 -0.036790997 -0.058338404 0.35154358 -0.15974076
0.15220222 -0.15994298 0.32179287 0.24366894 0.15963498 0.326915 0.24557576 -0.18437696
0.26006106 -0.27452078 -0.26549125 -0.1521175 -0.09589943 0.13716531 -0.01771307 0.11835626
-0.0795117 0.26323 -0.3493418 0.24972305 -0.016404659 0.06842607 0.2887328 -0.075229496
0.2686003 -0.23394713 0.11303684 -0.13287789 -0.16330647 0.034001887 0.24508706 -0.15180266
-0.2601385 0.20548543 0.3160452 -0.21374412 -0.24544597 -0.1607324 0.20884058 0.19497612
-0.34920138 -0.30482236 -0.072978795 0.12256077 -0.2971697 -0.21722697 0.34063646 -0.33160728
0.024137914 -0.30021858 -0.25655764 -0.047448248 0.18911156 0.34759405 -0.29760674 -0.24579072
-0.16242047 0.156373 0.0055984557 0.24145213 -0.11590493 -0.2870196 -0.25657138 -0.06632775
0.08346957 -0.20590892 0.109348476 0.055444688 0.034548283 0.008867025 0.10051373 -0.07942101
-0.02499047 -0.31524813 -0.14884067 0.17442694 -0.04373181 -0.256758 0.16940388 -0.26885515
0.27571997 0.1497272 -0.34173045 0.22508034 0.33231255 -0.0743992 0.11792907 -0.106123656
-0.3173446 -0.14565976 0.24299142 -0.24559382 -0.35147572 -0.26634085 -0.21937603 -0.22332123
0.13224629 -0.34104326 -0.056743145 -0.06321722 0.21569374 0.16939881 -0.013474524 0.2950448
0.12057775 0.23612645 -0.068760574 0.18371162 0.31278834 0.04035577 0.06591818 -0.1182348
-0.17914695 0.22958633 0.14024481 0.14300326 0.14676365 0.2691619 0.23479882 0.29650643
-0.32524005 0.006865144 -0.279958 -0.34969047 0.12542102 -0.113523796 0.15363714 -0.26323226
0.08187625 0.00062933564 0.030243725 0.048324645 0.254212 -0.04377693 -0.16017842 -0.01929593
-0.215701 -0.32124537 -0.29909578 0.057720095 0.05589786 0.33305183 -0.24778697 0.04990709
-0.12235339 -0.14177474 0.35175648 -0.092247576 0.095222384 0.25778344 0.23018172 0.2816778
00000000: a389 b0be fb1c 37be 9bc0 a73e 2836 6dbd
00000010: 9e13 32be 8a63 333e ba66 423e e6f0 363e
00000020: c2d3 463e 29ea 5bbe eee8 353e e8db 1bbd
00000030: e68e 503e b8d0 9a3d 21da 2bbe 8275 7dbe
00000040: d627 4a3e dbd9 853e 02ee 3e3e e8dc 87bd
00000050: 7431 9d3d 40be bd3d d1a0 843e 6058 67bc
00000060: 9e58 6d3e c92c 4bbe d0b0 b9bc 10ce aabd
00000070: 7407 55be 98b0 953d 4da1 b03e e8c8 dc3d
00000080: 9fce 80be 68b8 123e 23b3 3ebe 1840 623d
00000090: 76b0 21be 74d9 b1bd 8ca7 f2bd 62ce 313e
000000a0: 0054 113e 0021 b13a eeed 1e3e 42b4 543e
000000b0: c084 5f3d 66f7 7cbe 00a2 9bbb 1090 2abe
000000c0: e048 3f3c 1e08 7bbe e255 3f3e 02fc 82be
000000d0: e706 9a3e 2049 92bd c499 c83d c0d7 b43b
000000e0: 4891 a1bd d944 803e 28e4 6fbe 1b77 b13e
000000f0: 3e0c 0b3e 880a 0a3d 4ad3 0f3e f3aa 27be
00000100: 27b9 933e e155 b33e ae76 433e 6077 2d3c
00000110: 16d0 94be 0a6b 9ebe 2943 a73e 8e09 383e
00000120: 30e2 0a3e 9c7a 87bd 281a 88be 4c44 e83d
00000130: cebe 6cbe d25a 56be 23fd aebe 0e4b 313e
00000140: 8276 97be b1ac 933e 54c4 f0bd c616 2abe
00000150: cfca 80be 006f 633b 7c97 6abe c093 4a3d
00000160: b082 933c def7 353e 07aa 823e 180c ccbd
00000170: 0ae8 0b3e e92d 32be de08 4dbe 0e3e abbe
00000180: 5103 02be 80b2 4ebe c336 953e d606 1a3e
00000190: 28b2 16bd 40f4 6ebd 85fd b33e 1593 23be
000001a0: e6da 1b3e 18c8 23be 09c2 a43e 5a84 793e
000001b0: 5a77 233e 6761 a73e 3678 7b3e 50cd 3cbe
000001c0: b926 853e fd8d 8cbe 78ee 87be b1c4 1bbe
000001d0: ec66 c4bd 1075 0c3e 001b 91bc c464 f23d
000001e0: 08d7 a2bd 15c6 863e eedc b2be 66b7 7f3e
000001f0: 1063 86bc f822 8c3d c9d4 933e ec11 9abd
00000200: fb85 893e d68f 6fbe dc7f e73d 2411 08be
00000210: d039 27be 9045 0b3d 1af8 7a3e 2872 1bbe
00000220: e030 85be c66a 523e add0 a13e bddf 5abe
00000230: 3056 7bbe 0997 24be 4eda 553e d2a7 473e
00000240: 86ca b2be ad11 9cbe e875 95bd 2401 fb3d
00000250: a026 98be bf70 5ebe e767 ae3e 6ec8 a9be
00000260: e0bc c53c 40b6 99be 865b 83be 1859 42bd
00000270: 76a6 413e d9f7 b13e e95f 98be 90b0 7bbe
00000280: 8d51 26be 3e20 203e 4073 b73b 3a3f 773e
00000290: 905f edbd 3cf4 92be 535d 83be d8d6 87bd
000002a0: 18f2 aa3d cad9 52be 18f2 df3d f819 633d
000002b0: 8082 0d3d 0047 113c 24da cd3d 7ca7 a2bd
000002c0: d0b8 ccbc 3468 a1be b069 18be fa9c 323e
000002d0: 2020 33bd c975 83be 3678 2d3e 62a7 89be
000002e0: 2b2b 8d3e 1652 193e 4bf7 aebe 767b 663e
000002f0: df24 aa3e 9c5e 98bd cc84 f13d 5c57 d9bd
00000300: fe7a a2be d527 15be bed2 783e f27c 7bbe
00000310: a0f4 b3be d45d 88be 1ca4 60be 52ae 64be
00000320: 926b 073e 399d aebe 806b 68bd 0878 81bd
00000330: d2de 5c3e e276 2d3e 40c4 5cbc 1d10 973e
00000340: 78f1 f63d 22cb 713e 58d2 8cbd e61e 3c3e
00000350: cb25 a03e 184c 253d 1c00 873d 1625 f2bd
00000360: 4c72 37be ae18 6b3e 569c 0f3e 726f 123e
00000370: 3649 163e 97cf 893e 1a6f 703e b1cf 973e
00000380: dd85 a6be 00f5 e03b a856 8fbe a10a b3be
00000390: 5e6e 003e 2a7f e8bd 0e53 1d3e 61c6 86be
000003a0: bcae a73d 00fa 243a b0c1 f73c 10f0 453d
000003b0: 1328 823e 704f 33bd d005 24be 8012 9ebc
000003c0: b9e0 5cbe 467a a4be 1523 99be e86b 6c3d
000003d0: 28f5 643d c585 aa3e debb 7dbe 606b 4c3d
000003e0: 6a94 fabd 662d 11be 6d19 b43e 4cec bcbd
000003f0: f403 c33d 31fc 833e c2b4 6b3e 1338 903e

model/dense_3/MatMul f4 [6, 16]
0.10169268 0.021645963 -0.48396194 0.31662083 0.19013017 0.18317044 0.25990808 0.20344555
0.23443383 -0.33671612 -0.091302454 0.49668294 0.27347374 0.060839474 0.03283727 0.32234317
0.3215205 0.49075443 -0.31953546 0.08284277 0.26146984 -0.5185108 -0.15360618 0.21790588
-0.12437531 -0.23454279 0.06631392 -0.057661712 0.22775847 0.2236259 -0.08172962 0.51635164
-0.47825253 -0.21617445 -0.23467028 0.43550956 0.08097845 -0.37052405 0.3652894 0.13650125
0.42352277 0.11274207 -0.51999813 -0.10268518 -0.32224965 0.34988976 -0.28240457 -0.11380428
-0.4920227 -0.51200604 -0.052364677 0.258062 -0.07872495 -0.22568303 -0.033819526 0.28226125
-0.12468845 0.10045719 0.06511986 0.0075368285 0.36246264 0.017257571 -0.075998425 0.086015165
-0.19471017 -0.24233973 0.48473495 0.22669905 0.20049965 -0.2937559 0.49089617 0.10580313
-0.1988124 -0.25961488 0.5061247 0.13221359 -0.4063456 0.38086998 -0.30361372 0.41773278
-0.18410465 -0.14532289 -0.015769064 0.08165246 -0.28583694 -0.08566341 -0.4918443 0.4983688
0.3993336 -0.33102602 -0.34406954 -0.071415335 0.2944371 -0.35329798 -0.15566617 -0.32029086
00000000: 4044 d03d e052 b13c dcc9 f7be 201c a23e
00000010: 7cb1 423e 0891 3b3e ac12 853e 0854 503e
00000020: 6c0f 703e 0e66 acbe c8fc babd 3a4d fe3e
00000030: c004 8c3e d032 793d 6080 063d 2a0a a53e
00000040: 569e a43e 2a44 fb3e 279a a3be 78a9 a93d
00000050: 60df 853e 20bd 04bf f04a 1dbe b822 5f3e
00000060: 7cb8 febd fc2b 70be 98cf 873d b02e 6cbd
00000070: 8439 693e 30fe 643e dc61 a7bd 9f2f 043f
00000080: 84dd f4be d65c 5dbe 684d 70be 1cfb de3e
00000090: 08d8 a53d 54b5 bdbe 3607 bb3e fcc6 0b3e
000000a0: fad7 d83e 50e5 e63d 991e 05bf 9c4c d2bd
000000b0: e8fd a4be c024 b33e 5597 90be 3812 e9bd
000000c0: 66ea fbbe d412 03bf 587c 56bd b420 843e
000000d0: 8c3a a1bd 7419 67be 5886 0abd 8c84 903e
000000e0: a85c ffbd 80bc cd3d 905d 853d 80f7 f63b
000000f0: b494 b93e c05f 8d3c 10a5 9bbd b828 b03d
00000100: 1a62 47be e827 78be 2e2f f83e cc23 683e
00000110: c84f 4d3e 2c67 96be be56 fb3e 50af d83d
00000120: 7a95 4bbe 3eec 84be 6391 013f 0063 073e
00000130: 880c d0be 6401 c33e 4273 9bbe 12e1 d53e
00000140: ee85 3cbe 86cf 14be 202e 81bc 6839 a73d
00000150: 3859 92be 4c70 afbd 04d3 fbbe 322a ff3e
00000160: 7475 cc3e 3e7c a9be e229 b0be 3442 92bd
00000170: 76c0 963e 79e3 b4be f466 1fbe 2afd a3be

model/mood_prediction/MatMul f4 [33, 6]
0.27569202 0.10169646 0.37424317 -0.2967267 -0.044102073 0.220301 0.13715425 0.12054357
0.37932882 -0.13424659 0.105391264 0.055895597 0.111626714 0.15652177 -0.18851538 -0.23597972
0.21748564 -0.06406912 -0.119170666 0.18032828 0.07335055 -0.082033366 0.2862452 0.30066857
0.20648697 0.15713325 0.13479778 -0.31950596 0.2848722 -0.3664525 -0.109410375 0.27707574
0.122397155 -0.031138867 -0.2919951 0.09505734 0.109231025 -0.100548476 0.06954306 -0.017712772
0.35299066 -0.15520406 0.32048467 -0.20705651 0.13876703 0.16416779 0.0027472973 0.33229926
-0.32908887 0.21659389 0.3635743 -0.29291353 -0.08405432 -0.27891165 -0.11094749 -0.21219519
-0.119562685 0.21625355 0.13058051 -0.0012105703 0.004473299 -0.2379038 0.23614845 0.031402588
0.38299736 0.02140382 0.22330979 0.07850838 0.22006533 0.14766887 -0.026739448 0.38643637
0.12601414 0.14643654 0.09334919 0.30971357 -0.20484748 -0.13792688 0.10777441 -0.019817978
0.24612239 0.37857965 -0.08866492 0.37966803 -0.23186757 -0.3358894 -0.21125048 -0.022750616
-0.05958861 -0.3583721 -0.3075801 -0.071214736 -0.29853463 -0.2608916 0.38602707 0.28141132
0.18160215 -0.31252417 -0.083901316 -0.09384212 -0.22700112 -0.35784915 0.16621962 -0.031386882
-0.06727877 -0.118931085 -0.16011259 -0.029651046 -0.3170404 -0.0064368546 0.24108395 0.21079835
0.22048011 -0.26667374 0.32611075 0.24292848 -0.20680074 -0.10550395 -0.15878999 -0.17952864
-0.09288114 -0.040487528 -0.2730586 -0.34111804 0.35491565 -0.38019413 0.30691996 0.08838847
0.02099049 -0.3075483 0.0057113767 -0.07380578 -0.13943633 0.38520077 0.3227521 -0.045314223
-0.016189128 -0.38189974 -0.2993719 -0.2187423 0.1405572 -0.20509343 0.05082342 0.34562358
-0.10349226 0.23787108 0.32738045 -0.054489583 -0.032958686 0.20345458 0.08806771 -0.37061542
0.3595775 -0.23190151 -0.008325577 -0.06363326 -0.14367482 -0.08804864 -0.022701532 -0.3606433
-0.28352362 0.36711445 -0.2846198 -0.21624123 -0.15142472 -0.20386651 -0.14418298 0.34029987
-0.08247623 -0.27613956 -0.12523618 0.23554078 -0.20861512 -0.09422588 -0.030695617 -0.3504434
0.27684656 0.092565805 -0.18291025 -0.215405 0.1284422 0.065007 0.0038509667 0.2969447
0.14246443 0.083244085 -0.2362899 0.011294603 -0.23688233 -0.20231313 0.29459593 -0.31831372
0.06391755 0.3262253 0.33225676 -0.21718563 -0.23112926 -0.21456505
00000000: 8127 8d3e 3c46 d03d cd9c bf3e 90ec 97be
00000010: 60a4 34bd 9696 613e 2a72 0c3e 8cdf f63d
00000020: 6337 c23e f077 09be 60d7 d73d c8f2 643d
00000030: 8c9c e43d 3e47 203e 2d0a 41be aba4 71be
00000040: 8eb4 5e3e ac36 83bd c00f f4bd faa7 383e
00000050: d038 963d 1c01 a8bd bb8e 923e 3bf1 993e
00000060: 5271 533e 8ae7 203e 6e08 0a3e 4996 a3be
00000070: c5da 913e a99f bbbe 8c12 e0bd dfdc 8d3e
00000080: 5cab fa3d f016 ffbc 6280 95be 6cad c23d
00000090: 84b4 df3d 5cec cdbd 986c 8e3d 601a 91bc
000000a0: 31bb b43e d0ed 1ebe 9116 a43e 9f06 54be
000000b0: f218 0e3e 9a1b 283e 000c 343b 2123 aa3e
000000c0: 567e a8be caca 5d3e 6926 ba3e c3f8 95be
000000d0: ac24 acbd 82cd 8ebe 7038 e3bd b249 59be
000000e0: 48dd f4bd 9271 5d3e e6b6 053e 00ac 9eba
000000f0: c094 923b 0e9d 73be e6d0 713e 00a0 003d
00000100: 3b18 c43e 1057 af3c 52ab 643e 00c9 a03d
00000110: ce58 613e 8236 173e b00c dbbc fdda c53e
00000120: da09 013e 76f3 153e dc2d bf3d c792 9e3e
00000130: 8ac3 51be b43c 0dbe d4b8 dc3d 5059 a2bc
00000140: 8207 7c3e 31d5 c13e f495 b5bd d963 c23e
00000150: b16e 6dbe b2f9 abbe 0c52 58be 805f babc
00000160: 3013 74bd 8c7c b7be 247b 9dbe 08d9 91bd
00000170: 88d9 98be 9593 85be 57a5 c53e 2515 903e
00000180: eaf5 393e 2b03 a0be 74d4 abbd 4c30 c0bd
00000190: fb72 68be 0138 b7be 7a35 2a3e 888f 00bd
000001a0: 74c9 89bd 2492 f3bd 8ef4 23be c0e6 f2bc
000001b0: 1f53 a2be 40ec d2bb b6de 763e 86db 573e
000001c0: 8ac5 613e 7689 88be fdf7 a63e 3ec2 783e
000001d0: 93c3 53be 7412 d8bd d899 22be 5bd6 37be
000001e0: 7838 bebd 40d6 25bd 56ce 8bbe 06a7 aebe
000001f0: 81b7 b53e cea8 c2be 9d24 9d3e 0405 b53d
00000200: 40f4 ab3c f976 9dbe 8026 bb3b 7c27 97bd
00000210: 66c8 0ebe 0939 c53e c33f a53e 689b 39bd
00000220: 109f 84bc 5d88 c3be 4647 99be fbfd 5fbe
00000230: 3aee 0f3e 0304 52be 382c 503d 93f5 b03e
00000240: c0f3 d3bd 7a94 733e 699e a73e 7830 5fbd
00000250: b0ff 06bd 6656 503e d85c b43d 4ec1 bdbe
00000260: 8b1a b83e 9777 6dbe 0068 08bc 2852 82bd
00000270: 7e1f 13be d852 b4bd 90f8 b9bc 3da6 b8be
00000280: 022a 91be 6df6 bb3e b0b9 91be 576e 5dbe
00000290: 150f 1bbe 62c2 50be b4a4 13be c93b ae3e
000002a0: 4ce9 a8bd 2a62 8dbe ea3d 00be 9a31 713e
000002b0: 349f 55be 80f9 c0bd 6075 fbbc 516d b3be
000002c0: d5be 8d3e 2493 bd3d d34c 3bbe 2193 5cbe
000002d0: 5a86 033e 6422 853d 8060 7c3b 2309 983e
000002e0: 32e2 113e e07b aa3d fbf5 71be 000d 393c
000002f0: 4891 72be 2c2b 4fbe 47d5 963e 04fa a2be
00000300: 34e7 823d 0107 a73e 8f1d aa3e e965 5ebe
00000310: 26ad 6cbe f1b6 5bbe

model/recommendation_1/MatMul f4 [60, 6]
0.26388723 0.051311433 -0.06720872 -0.114454806 -0.041231394 -0.04062912 0.05859515 0.25486916
-0.0597374 -0.026488304 0.12941468 0.18447915 0.032537013 -0.14797153 -0.08829257 0.0978595
-0.172544 0.21829444 0.09860921 0.2698034 -0.17071429 0.020775616 -0.092648566 -0.19433169
-0.027010351 0.028311968 0.044996977 0.15268272 0.2902366 0.14521319 -0.05772561 0.20409554
-0.08756767 -0.24906188 -0.10842976 0.065703005 0.15177286 0.22343498 -0.09186113 -0.008752048
0.29248363 0.022931606 0.22930694 -0.058253825 0.19486234 0.2790208 -0.12868504 -0.14977702
0.14798585 0.047191083 -0.25802755 -0.032453388 0.17342567 -0.08349612 -0.25642636 0.016915768
0.014089495 -0.2585104 -0.10079627 0.02495116 0.2546416 -0.048527956 -0.0072721243 -0.03714317
-0.026792228 -0.20659333 0.19212112 -0.2954418 -0.056275815 0.21046704 0.08498353 0.21627897
-0.089925095 0.08981505 -0.19433212 0.14563856 -0.12709874 0.30036283 -0.0901023 0.0060164332
-0.1985578 -0.19666223 0.06576502 0.11020252 -0.09330748 -0.2495819 -0.0363563 0.087928176
-0.11707792 -0.2102647 0.0655843 -0.117611304 0.06983027 -0.08009003 -0.16467415 -0.27083132
0.15053728 0.24818027 0.08565694 -0.022966385 0.08796793 -0.009827167 -0.27659613 -0.026053905
-0.06491771 0.043851107 -0.23770368 0.29868674 0.13629481 0.19292647 -0.2661933 -0.014309257
0.1252845 -0.01564756 0.106491715 0.14384356 0.12519449 -0.27238196 -0.15987562 0.16216648
-0.08093922 -0.07432686 -0.20272711 -0.04737094 -0.025152087 0.2055679 0.073566824 0.1616438
-0.27837062 -0.09213516 0.2562697 0.22056746 0.18308377 0.036992997 0.124516875 0.20190334
0.010800272 0.004303664 0.1696598 -0.096714586 -0.013735741 0.2255435 -0.13780715 0.14357269
0.08045858 -0.16817075 0.028838962 -0.2881737 -0.07746339 0.19384381 0.23336911 -0.2827794
0.16982824 0.055375367 -0.16043468 -0.066452265 -0.13939267 -0.18154606 -0.25680104 -0.18051817
0.26288617 0.1789555 -0.06619549 0.16029653 0.06280491 -0.12617105 -0.11635941 0.028844863
-0.24681035 0.00490579 0.10497406 0.13448775 -0.078033164 0.28792226 0.106411904 0.109612554
0.12083927 0.114554286 0.2776655 0.098475575 0.08305383 0.20304585 0.07101607 0.02779597
-0.060082316 0.24966908 0.21876317 0.15498465 -0.13833106 -0.29508597 0.1502307 0.17666689
0.1004349 -0.15076207 -0.089150175 -0.20947129 0.09700242 0.21930802 0.117782116 -0.0017462671
-0.14374845 0.06063202 -0.26879558 0.15681422 0.14678836 0.016087145 0.25300997 0.0841209
-0.018572599 0.11887348 0.019503444 0.23172575 -0.13093522 -0.26668054 -0.2639069 0.11384311
0.276726 0.28162915 0.10607529 0.04325944 0.24321836 0.28966844 0.07112011 0.017287195
-0.10986589 -0.16363935 -0.2669918 -0.10843831 0.05665967 -0.0004722774 0.072888434 0.017506093
0.0774135 0.08345744 0.18031436 0.14954764 -0.25591245 0.2898304 -0.17192917 -0.27354017
0.09456721 -0.2725491 0.20178157 -0.21517041 -0.027046204 -0.028455168 0.02393356 0.23990816
0.12297508 -0.17584091 0.11785349 -0.04045838 -0.032857537 -0.06345053 -0.19027135 0.29537266
00000000: 3a1c 873e f02b 523d baa4 89bd 4867 eabd
00000010: 40e2 28bd b86a 26bd 7801 703d 367e 823e
00000020: 34af 74bd 00fe d8bc 4885 043e 1ae8 3c3e
00000030: 8845 053d d985 17be bcd2 b4bd 906a c83d
00000040: 60af 30be 9488 5f3e a0f3 c93d ac23 8a3e
00000050: bacf 2ebe a031 aa3c 88be bdbd e3fe 46be
00000060: d044 ddbc 80ee e73c c04e 383d dc58 1c3e
00000070: e499 943e c4b2 143e b071 6cbd 6cfe 503e
00000080: ae56 b3bd 140a 7fbe 6c10 debd 4c8f 863d
00000090: 586a 1b3e 24cc 643e b021 bcbd c064 0fbc
000000a0: 6ac0 953e 10db bb3c 70cf 6a3e 909b 6ebd
000000b0: fe89 473e d0db 8e3e 03c6 03be 265f 19be
000000c0: 9a89 173e 704b 413d 301c 84be d8ed 04bd
000000d0: 8096 313e 0400 abbd 514a 83be f092 8a3c
000000e0: a0d7 663c 7a5b 84be 466e cebd 6066 cc3c
000000f0: 6260 823e 40c5 46bd 004b eebb 7023 18bd
00000100: 607b dbbc 348d 53be 66bb 443e 2644 97be
00000110: 7881 66bd ac84 573e d80b ae3d 3c78 5d3e
00000120: a62a b8bd f4f0 b73d 00ff 46be 4622 153e
00000130: 2c26 02be 28c9 993e 8e87 b8bd 8025 c53b
00000140: bc52 4bbe d361 49be d0af 863d dcb1 e13d
00000150: fe17 bfbd 6692 7fbe 58ea 14bd b013 b43d
00000160: 8cc6 efbd a14f 57be 1051 863d 32de f0bd
00000170: 2c03 8f3d 3e06 a4bd 57a0 28be 67aa 8abe
00000180: 7226 1a3e f822 7e3e e86c af3d 0024 bcbc
00000190: 8828 b43d 2002 21bc 029e 8dbe 006f d5bc
000001a0: 94f3 84bd 389d 333d 9868 73be 78ed 983e
000001b0: de90 0b3e 848e 453e 7d4a 88be 6071 6abc
000001c0: 944a 003e 502f 80bc 5418 da3d ba4b 133e
000001d0: fc32 003e a675 8bbe 6fb6 23be f80e 263e
000001e0: 76c3 a5bd ae38 98bd b297 4fbe 0808 42bd
000001f0: c00b cebc 6480 523e 34aa 963d f485 253e
00000200: 9886 8ebe 5cb1 bcbd c835 833e 70dc 613e
00000210: 507a 3b3e f885 173d b402 ff3d c0bf 4e3e
00000220: a0f3 303c c005 8d3b 4cbb 2d3e 4c12 c6bd
00000230: e00b 61bc e0f4 663e 511d 0dbe b804 133e
00000240: 78c7 a43d f434 2cbe b03f ec3c 818b 93be
00000250: 20a5 9ebd fe7e 463e 50f8 6e3e 76c8 90be
00000260: 74e7 2d3e 48d1 623d fd48 24be 2018 88bd
00000270: f4bc 0ebe 36e7 39be 6d7b 83be c1d9 38be
00000280: 0499 863e 1c40 373e 8091 87bd c624 243e
00000290: dc9f 803d fc32 01be d84d eebd 104c ec3c
000002a0: dabb 7cbe c0c0 a03b a4fc d63d 28b7 093e
000002b0: dacf 9fbd 8c6a 933e 7cee d93d 8c7c e03d
000002c0: 947a f73d 709b ea3d 2c2a 8e3e 90ad c93d
000002d0: 2018 aa3d 40eb 4f3e e070 913d 60b4 e33c
000002e0: e018 76bd 40a9 7f3e 7403 603e 4cb4 1e3e
000002f0: a8a6 0dbe 8215 97be 14d6 193e 2ae8 343e
00000300: d0b0 cd3d 5f61 1abe 5e94 b6bd a47f 56be
00000310: 34a9 c63d 4892 603e c037 f13d 00e3 e4ba
00000320: cb32 13be 4859 783d 939f 89be e893 203e
00000330: b04f 163e 30c9 833c 868a 813e 9447 ac3d
00000340: 9025 98bc f073 f33d b0c5 9f3c 8449 6d3e
00000350: e213 06be 5a8a 88be ce1e 87be 9426 e93d
00000360: 08af 8d3e b231 903e 003e d93d d030 313d
00000370: 3c0e 793e 6c4f 943e 6ca7 913d e09d 8d3c
00000380: 5e01 e1bd 1391 27be 26b3 88be e814 debd
00000390: f813 683d 009c f7b9 8846 953d f068 8f3c
000003a0: f88a 9e3d bceb aa3d 54a4 383e 0423 193e
000003b0: f506 83be a664 943e 330e 30be 750d 8cbe
000003c0: 74ac c13d 8e8b 8bbe d49f 4e3e a255 5cbe
000003d0: 0090 ddbc d01a e9bc 5010 c43c 7caa 753e
000003e0: 5cda fb3d a40f 34be 2c5d f13d b0b7 25bd
000003f0: a095 06bd 5af2 81bd 7ed6 42be 163b 973e

model/recommendation_2/MatMul f4 [60, 6]
-0.29960126 0.27022457 -0.2034755 0.25714785 0.023115277 -0.05540915 -0.11683847 -0.14947301
-0.117006674 0.28847712 0.21162349 0.2984478 -0.2766787 -0.0025070906 0.21989417 -0.26862922
0.114073455 -0.19241872 0.008847058 -0.04697448 -0.17656782 -0.16846138 0.18563128 -0.12612799
-0.06621325 -0.09513366 0.2479859 0.25687093 0.11076331 -0.26643276 -0.19956757 0.16817686
0.00612095 0.16568702 0.019472182 0.0418005 0.24581492 0.05058101 -0.033799738 -0.15085667
0.22119302 0.22783959 0.025509298 -0.09308247 0.1585522 -0.15816014 -0.041855484 -0.14526482
-0.28641647 0.12652868 0.048138827 0.1269114 -0.07248457 0.007086009 0.29844213 0.13584056
0.10073805 -0.24779618 -0.050215244 -0.19414723 0.24778104 -0.18318197 0.08746904 -0.16014211
0.10786107 -0.120484665 0.17407128 0.18525466 -0.13421364 -0.29648852 -0.023204684 0.24461222
-0.0903787 -0.15162764 0.21089077 -0.1467356 0.21078658 -0.12984148 0.04616952 -0.24939609
0.29788822 -0.039692163 -0.061787516 -0.009852529 -0.18738204 0.14741132 0.20737898 0.18572465
-0.23326948 -0.08819704 -0.16646698 0.050955176 -0.10884914 0.08282176 -0.1699999 0.14036176
-0.008921623 0.21614379 -0.21705094 -0.016834319 -0.16118474 -0.024355292 0.26442426 -0.17829537
0.0192402 -0.19671103 0.023224533 0.21485835 -0.04525885 -0.17577413 -0.18587238 0.23089188
0.118899584 -0.11510961 -0.12328613 -0.23122548 -0.29769248 -0.08667521 0.21946687 -0.15015931
-0.07125008 -0.095482886 0.032868117 0.058431745 -0.106159806 0.21659166 0.10723084 -0.21797252
0.20943463 0.30061847 -0.1093954 -0.053833336 -0.27764452 -0.029681921 -0.103348926 0.13701561
-0.12385589 0.19957006 -0.120201215 -0.19208318 0.18875802 -0.20647141 -0.11105223 -0.024645448
0.099068135 -0.12403798 0.24360889 0.036928862 -0.13995941 -0.13418388 0.011836529 -0.16083997
0.12222767 0.26452523 -0.09112416 -0.30070233 -0.029920578 -0.16540538 0.039625168 0.03894025
0.13518468 0.1375063 0.2109384 -0.25457725 -0.005053729 -0.15989073 -0.0058077276 -0.17171897
0.14543813 -0.20426014 0.23568714 0.19892156 -0.24316673 0.28890854 0.12958714 0.21576029
0.027736902 0.22769266 0.036631405 0.21335709 0.09299651 -0.16112888 -0.1515393 -0.2807487
0.14628696 0.0050171316 0.29027462 0.008719534 -0.08395943 0.13675633 0.09717041 -0.16799837
0.015121192 0.07459527 -0.29700258 -0.1449447 0.069860816 -0.0112864375 0.24724817 -0.08803773
-0.046518296 0.27643394 0.06924087 -0.20234933 0.07258779 -0.1858513 0.06934014 -0.05059883
0.056589097 0.078765094 -0.24925137 -0.073361516 0.021708906 0.2165252 0.22941077 0.066700846
0.043068856 0.2385611 -0.07800858 -0.011342227 0.19243729 -0.2644574 -0.17286563 -0.16767496
0.2413953 0.22463107 0.2814355 -0.13716125 0.27552277 -0.15268725 0.037513435 -0.14248505
-0.22926816 -0.20484298 -0.20550936 0.05604607 0.19572964 0.17520148 -0.26338458 -0.2738988
0.18838966 -0.12979166 0.22385734 0.090906054 -0.1579915 -0.106034085 0.090739846 -0.18506588
0.2597915 -0.2944735 0.011616826 -0.2902236 0.13631207 0.28092784 0.055096805 -0.08181213
00000000: 5665 99be e05a 8a3e e25b 50be e2a8 833e
00000010: 405c bd3c b4f4 62bd 0249 efbd 740f 19be
00000020: 32a1 efbd 46b3 933e d4b3 583e 26ce 983e
00000030: d5a8 8dbe 004e 24bb f02b 613e c589 89be
00000040: 589f e93d 6a09 45be 40f3 103c 5068 40bd
00000050: 32ce 34be 2481 2cbe 2016 3e3e b227 01be
00000060: d09a 87bd 70d5 c2bd 04f0 7d3e 9684 833e
00000070: e0d7 e23d e069 88be 715b 4cbe 8e36 2c3e
00000080: 4092 c83b dca9 293e 2084 9f3c 0037 2b3d
00000090: e8b6 7b3e 082e 4f3d 9871 0abd 2c7a 1abe
000000a0: 6c80 623e c84e 693e e0f8 d03c 06a2 bebd
000000b0: 825b 223e bbf4 21be a870 2bbd 4dc0 14be
000000c0: 2ea5 92be bc90 013e 382d 453d 10f5 013e
000000d0: ca72 94bd c031 e83b 68cd 983e ca19 0b3e
000000e0: c04f ce3d 48be 7dbe 80ae 4dbd 88ce 46be
000000f0: 50ba 7d3e 0e94 3bbe f822 b33d 4bfc 23be
00000100: 44e6 dc3d aac0 f6bd be3f 323e 66b3 3d3e
00000110: 4d6f 09be 58cd 97be c017 bebc a07b 7a3e
00000120: 7818 b9bd 4744 1bbe c0f3 573e db41 16be
00000130: 70d8 573e 2af5 04be 401c 3d3d b061 7fbe
00000140: ce84 983e 4094 22bd e814 7dbd 806c 21bc
00000150: 14e1 3fbe fef2 163e 285b 543e 9a2e 3e3e
00000160: 32de 6ebe a6a0 b4bd 5276 2abe 60b6 503d
00000170: 4cec debd 749e a93d 7414 2ebe feba 0f3e
00000180: 002c 12bc cc54 5d3e 9a42 5ebe 20e8 89bc
00000190: 9d0d 25be c084 c7bc 9e62 873e 1093 36be
000001a0: a09d 9d3c 9e6e 49be 6041 be3c d403 5c3e
000001b0: 5861 39bd 22fe 33be 5455 3ebe ec6e 6c3e
000001c0: a081 f33d 96be ebbd 707d fcbd 5fc6 6cbe
000001d0: 266b 98be c682 b1bd ecbb 603e 5dc3 19be
000001e0: 90eb 91bd 888c c3bd b8a0 063d 2056 6f3d
000001f0: 506a d9bd 34ca 5d3e d89b db3d 3034 5fbe
00000200: 0876 563e aaea 993e b20a e0bd 5880 5cbd
00000210: 6c27 8ebe 8027 f3bc 9aa8 d3bd d24d 0c3e
00000220: 28a8 fdbd 185c 4c3e 0e2c f6bd 74b1 44be
00000230: c849 413e 3e6d 53be 5a6f e3bd 40e5 c9bc
00000240: 3ce4 ca3d a007 febd 9c74 793e b842 173d
00000250: 8551 0fbe 8067 09be 00ee 413c 3cb3 24be
00000260: 8052 fa3d da6f 873e 4e9f babd a8f5 99be
00000270: 001c f5bc 0760 29be 004e 223d d07f 1f3d
00000280: da6d 0a3e 74ce 0c3e 3c00 583e f357 82be
00000290: c099 a5bb 65ba 23be c04e bebb 19d7 2fbe
000002a0: bced 143e 9229 51be f857 713e 18b2 4b3e
000002b0: b300 79be d2eb 933e 7eb2 043e 44f0 5c3e
000002c0: 8038 e33c 4428 693e d00a 163d 487a 5a3e
000002d0: f474 be3d f8fe 24be 1e2d 1bbe 4bbe 8fbe
000002e0: 40cc 153e c066 a43b e09e 943e 60dc 0e3c
000002f0: ecf2 abbd da09 0c3e 4801 c73d c407 2cbe
00000300: e0be 773c 68c5 983d b910 98be 626c 14be
00000310: 3013 8f3d c0ea 38bc a02e 7d3e 204d b4bd
00000320: f889 3ebd c088 8d3e 28ce 8d3d aa34 4fbe
00000330: e8a8 943d ce4f 3ebe 3402 8e3d b840 4fbd
00000340: f8c9 673d 984f a13d c03b 7fbe 903e 96bd
00000350: e0d6 b13c c8b8 5d3e a8ea 6a3e 749a 883d
00000360: f868 303d 5c49 743e f6c2 9fbd c0d4 39bc
00000370: 480e 453e f666 87be b003 31be fcb2 2bbe
00000380: 5430 773e b005 663e 5018 903e 0074 0cbe
00000390: 5211 8d3e 0c5a 1cbe b0a7 193d 9ae7 11be
000003a0: 46c5 6abe 5cc2 51be 0c71 52be 9090 653d
000003b0: 5a6d 483e 0468 333e 58da 86be 773c 8cbe
000003c0: 38e9 403e 1be8 04be dc3a 653e f42c ba3d
000003d0: 86c8 21be 6628 d9bd d0d5 b93d e981 3dbe
000003e0: 6403 853e 3bc5 96be 8054 3e3c 3098 94be
000003f0: 6495 0b3e c6d5 8f3e 30ad 613d 1e8d a7bd

model/recommendation_3/MatMul f4 [60, 6]
-0.18418291 -0.07949805 -0.08729565 -0.110832974 0.30036664 0.2533946 0.08455092 -0.08766501
-0.0819311 -0.09747952 -0.063720465 0.03704834 0.021954238 -0.1681525 0.26922673 -0.2653237
-0.1686869 -0.07068469 0.03445074 0.17242935 -0.28368667 -0.098830044 -0.22319287 0.1680224
0.0601708 -0.012342155 -0.16321336 0.20324832 0.17280754 0.12806424 0.089773566 0.2168979
-0.085239366 0.15091124 -0.047322065 -0.0058942735 0.17127413 0.17289719 -0.018466353 -0.10462275
-0.06329216 0.18687323 -0.21348274 -0.14320205 -0.10610144 -0.14736165 0.12666073 -0.10423291
-0.23868191 -0.16262504 0.16578889 0.07316908 0.22791755 -0.010309726 0.16853753 0.20503038
-0.23000866 -0.23014446 0.07576409 -0.11203088 0.2973317 -0.03954947 -0.2080026 -0.2528609
0.23449391 0.17926913 0.23434585 -0.16580707 -0.0063581765 0.26092958 -0.047744393 -0.0074864924
-0.15409549 0.14646769 -0.14732477 0.02248627 -0.031229824 -0.044727325 0.2292316 0.26717204
0.22217995 -0.094359666 -0.22315505 -0.2675602 -0.07333894 -0.24611908 -0.23697384 -0.019946843
-0.29920128 -0.26478505 0.05811006 -0.010908335 -0.20583308 -0.13698427 0.2531225 0.086731434
-0.24628328 -0.26225 0.291274 0.08261582 -0.28188032 -0.16429366 -0.18279931 -0.07277204
0.22096711 0.25291055 -0.120188564 0.10451701 -0.13916464 0.21955287 -0.20524497 -0.21219346
-0.17031777 0.24453658 0.23825663 0.2641344 0.29463476 0.22781569 -0.2790621 -0.05641131
-0.101616845 -0.19640645 0.00203681 0.21953166 0.02753669 0.074327886 -0.10726945 0.26153588
0.12498242 0.034291446 -0.090578765 0.26594913 -0.09060995 -0.24240029 0.00436607 -0.07461397
-0.27032572 -0.09683463 0.16049075 0.047537714 -0.03057465 0.11778304 0.22648889 -0.27685025
0.24452823 -0.21032889 0.15642431 0.24682963 0.039901197 0.07757798 0.25135064 -0.13413443
-0.11103304 -0.11647566 0.17576379 -0.14266707 -0.08187294 -0.10018696 -0.15783176 0.22017163
0.2087689 -0.21535903 0.06936365 0.013727754 0.012634009 0.28148597 0.19997638 -0.22023362
-0.10064006 -0.03776312 -0.22225663 0.18150896 -0.2120057 0.027431667 -0.06421475 -0.21006313
-0.17977645 -0.027633578 -0.2986452 0.20284873 -0.09653738 0.27523494 -0.27399272 0.12984738
0.16916737 0.11143401 0.28754628 0.014449 0.06611657 -0.18417615 -0.18839514 -0.15712045
-0.043951392 -0.028538853 0.27096075 -0.13567911 0.13779041 -0.055976838 -0.045008272 0.19727957
0.26359487 0.024019152 0.18391824 0.043579042 -0.2850432 0.22829187 -0.02714923 0.17980865
0.07695687 0.082149 -0.27585813 -0.12497178 -0.15710054 -0.03446403 -0.17675996 -0.21708077
0.13218546 0.18688366 -0.03565225 0.28354686 0.18404698 -0.24101108 -0.06953581 -0.28605387
0.23849374 0.17327675 -0.14976257 -0.25343335 -0.30029726 -0.2744338 0.02579388 0.25833946
0.10747093 0.2406261 0.2754001 -0.10056652 -0.24864006 0.044519305 0.050998032 -0.033274204
0.21842492 0.06144169 -0.06782091 0.11346522 -0.036625594 0.28029537 0.26780713 0.07092968
0.28630525 -0.29337838 0.19465116 -0.27223977 0.16567034 -0.2205873 -0.051344156 0.1102719
00000000: 729a 3cbe e0cf a2bd 10c8 b2bd 66fc e2bd
00000010: a8c9 993e f0bc 813e 0829 ad3d b689 b3bd
00000020: 7ecb a7bd 58a3 c7bd e07f 82bd 00c0 173d
00000030: 60d9 b33c 2b30 2cbe 16d8 893e 82d8 87be
00000040: 42bc 2cbe 22c3 90bd 381c 0d3d 5291 303e
00000050: 613f 91be 6867 cabd ac8c 64be 100e 2c3e
00000060: a875 763d c036 4abc 6721 27be 5420 503e
00000070: 76f4 303e 4623 033e 34db b73d 7c1a 5e3e
00000080: fa91 aebd 7a88 1a3e c8d4 41bd c024 c1bb
00000090: 7c62 2f3e f60b 313e c046 97bc 7444 d6bd
000000a0: 529f 81bd b25b 3f3e 389b 5abe 8fa3 12be
000000b0: b64b d9bd f9e5 16be 5ab3 013e 1078 d5bd
000000c0: 0869 74be 2e87 26be 90c4 293e acd9 953d
000000d0: 3863 693e 20ea 28bc 1a95 2c3e 7cf3 513e
000000e0: 6487 6bbe fdaa 6bbe 342a 9b3d 7270 e5bd
000000f0: dc3b 983e a0fe 21bd a2fe 54be fc76 81be
00000100: 2c1f 703e 5492 373e 5cf8 6f3e 54c9 29be
00000110: 4058 d0bb 9098 853e a08f 43bd 4051 f5bb
00000120: 35cb 1dbe a0fb 153e 4edc 16be 2035 b83c
00000130: b0d5 ffbc 0034 37bd b0bb 6a3e c6ca 883e
00000140: 2483 633e a43f c1bd c282 64be a7fd 88be
00000150: ba32 96bd a406 7cbe 45a9 72be 9067 a3bc
00000160: e930 99be e891 87be d004 6e3d e0b8 32bc
00000170: e8c5 52be 9b45 0cbe 4699 813e 40a0 b13d
00000180: af31 7cbe a245 86be de21 953e 7c32 a93d
00000190: 9e52 90be 993c 28be be2f 3bbe 8209 95bd
000001a0: 3445 623e 7e7d 813e 6c25 f6bd 040d d63d
000001b0: 2d81 0ebe 78d2 603e bd2b 52be 3e49 59be
000001c0: c867 2ebe cc67 7a3e 8cf9 733e a03c 873e
000001d0: 5eda 963e 8448 693e 3ae1 8ebe 8c0f 67bd
000001e0: 7e1c d0bd c61e 49be 007c 053b e8cc 603e
000001f0: a094 e13c 3839 983d 16b0 dbbd 08e8 853e
00000200: c8f6 ff3d 3075 0c3d 5c81 b9bd 7c2a 883e
00000210: b691 b9bd c837 78be 4011 8f3b 36cf 98bd
00000220: 2268 8abe 3c51 c6bd b057 243e e8b6 423d
00000230: b077 fabc 3c38 f13d b4ec 673e 51bf 8dbe
00000240: 9c65 7a3e 7560 57be b22d 203e e8c0 7c3e
00000250: 706f 233d 34e1 9e3d 08b1 803e 895a 09be
00000260: 4a65 e3bd ca8a eebd 6cfb 333e 5117 12be
00000270: 00ad a7bd d22e cdbd a69e 21be ac74 613e
00000280: 84c7 553e 1487 5cbe 880e 8e3d 60ea 603c
00000290: e0fe 4e3c ee1e 903e 9cc6 4c3e ec84 61be
000002a0: 601c cebd 80ad 1abd 3e97 63be 7cdd 393e
000002b0: 0618 59be 60b8 e03c 0683 83bd ca1a 57be
000002c0: 5117 38be d05f e2bc 06e8 98be 94b7 4f3e
000002d0: 64b5 c5bd 98eb 8c3e c648 8cbe b6f6 043e
000002e0: 363a 2d3e 8437 e43d 4439 933e 80bb 6c3c
000002f0: 2068 873d ac98 3cbe a8ea 40be 2fe4 20be
00000300: 6006 34bd 50ca e9bc 5ebb 8a3e 77ef 0abe
00000310: ee18 0d3e f847 65bd 985a 38bd a803 4a3e
00000320: e8f5 863e d0c3 c43c 1055 3c3e f07f 323d
00000330: 2ff1 91be 58c5 693e 1068 debc c21f 383e
00000340: 909b 9d3d bc3d a83d 473d 8dbe 34f1 ffbd
00000350: f7de 20be 282a 0dbd 9000 35be 6c4a 5ebe
00000360: a05b 073e 6e5e 3f3e 1808 12bd 0e2d 913e
00000370: d076 3c3e 9ccb 76be ca68 8ebd a775 92be
00000380: b437 743e 766f 313e 5c5b 19be 04c2 81be
00000390: 90c0 99be 9682 8cbe b04d d33c 1245 843e
000003a0: b819 dc3d b066 763e 3e01 8d3e d2f5 cdbd
000003b0: 809b 7ebe e059 363d 50e3 503d 884a 08bd
000003c0: c8aa 5f3e 48aa 7b3d b0e5 8abd 7460 e83d
000003d0: b804 16bd e082 8f3e 041e 893e 9443 913d
000003e0: 9a96 923e b135 96be a252 473e 0363 8bbe
000003f0: 7ca5 293e a3e1 61be 404e 52bd 3cd6 e13d
